results/hybrid/1m/lightgcn/checkpoint_epoch_20.pt (torch, 914493 bytes, 4 tensors)

item_emb.weight f4 [3534, 64]
0.0 0.0 0.0 0.0 0.0 0.0 0.0 0.0
0.0 0.0 0.0 0.0 0.0 0.0 0.0 0.0
0.0 0.0 0.0 0.0 0.0 0.0 0.0 0.0
0.0 0.0 0.0 0.0 0.0 0.0 0.0 0.0
0.0 0.0 0.0 0.0 0.0 0.0 0.0 0.0
0.0 0.0 0.0 0.0 0.0 0.0 0.0 0.0
0.0 0.0 0.0 0.0 0.0 0.0 0.0 0.0
0.0 0.0 0.0 0.0 0.0 0.0 0.0 0.0
0.010833004 0.0055544227 0.0041474244 -0.023953114 -0.025132775 0.0013357297 0.006304322 0.008047755
-0.011632888 -0.034512803 -0.008031627 0.030814674 0.008018788 0.010613231 0.0016613503 -0.007207501
-0.009174458 -0.024199547 -0.013748853 0.005076428 -0.043529958 -0.016618274 -0.033273358 -0.0132618
-0.016770499 3.9433282e-05 -0.009786858 0.013542374 -0.021512907 0.009985902 0.028294142 -0.0013915373
0.008745698 0.011839936 -0.018714868 0.013551756 0.0031614315 -0.02913825 0.025160812 -0.0027463373
-0.01034314 0.016038604 -0.029388791 -0.014099558 0.0072931275 -0.011159107 -0.00047147283 -0.0005787795
0.013950704 0.025401767 -0.04983555 0.0033531513 0.038201142 -0.0072577945 0.04282724 0.0014483072
-0.04118597 -0.016005848 0.002395387 0.018035011 0.02869683 -0.011008025 -0.006779165 0.02126018
-0.028993985 -0.013275666 0.053832427 0.004613825 0.031175015 -0.014614598 0.02437367 0.03825424
-0.008555558 0.011695611 -0.0044577816 -0.011626889 0.016025724 -0.0060143922 0.025537964 -0.008776426
0.01989751 -0.031974755 -0.009986409 -0.0014438698 0.0029495608 -0.0111855315 -0.0034358576 -0.019489871
0.0003634179 0.0068031815 0.00808761 0.01586285 0.0046721804 0.027549384 0.011474576 -0.03429491
-0.023981031 -0.010657121 -0.016405025 0.026560266 -0.008154601 -0.014002662 0.03564038 -0.038680255
0.0016820937 0.014069217 -0.0044024806 -0.0156956 0.0036841817 0.013975313 0.016008139 -0.024699317
-0.012127878 0.02389035 0.056602925 -0.005398492 -0.020437637 0.0024311182 -0.017137364 -0.02246696
-0.013522311 -0.028890405 0.043414682 -0.020981448 0.018072518 -0.0030887434 -0.040216085 -0.00816389
0.031212498 -0.012896952 -0.011723496 0.0018225858 -0.0050154864 0.058203667 0.03793783 8.764823e-05
0.015866207 -0.031264007 0.0035055364 0.00422156 0.008511552 -0.05359383 0.007017556 0.016420163
0.018880116 -0.010519496 -0.004873575 -0.014754005 -0.025592513 -0.007531016 -0.01702434 0.0016016673
-0.06135899 -0.02762291 0.0054110023 -0.008744112 -0.002172693 0.03134109 0.045594145 -0.012313962
-0.01049437 -0.04932763 0.036176458 -0.022035 0.0055929194 -0.02335723 0.010080271 -0.0044284686
0.028014759 -0.04116934 -0.0403855 0.024981711 0.015350759 -0.0040415204 0.009570394 -0.037790254
0.0090440335 -0.02496857 -0.008658145 -0.016316075 0.015207719 -0.0072712917 -0.0032839002 0.00270149
0.016520178 -0.007152528 0.036792226 0.02410271 -0.009222889 -0.023908878 0.0054165623 -0.045988124
00000000: 0000 0000 0000 0000 0000 0000 0000 0000
00000010: 0000 0000 0000 0000 0000 0000 0000 0000
00000020: 0000 0000 0000 0000 0000 0000 0000 0000
00000030: 0000 0000 0000 0000 0000 0000 0000 0000
00000040: 0000 0000 0000 0000 0000 0000 0000 0000
00000050: 0000 0000 0000 0000 0000 0000 0000 0000
00000060: 0000 0000 0000 0000 0000 0000 0000 0000
00000070: 0000 0000 0000 0000 0000 0000 0000 0000
00000080: 0000 0000 0000 0000 0000 0000 0000 0000
00000090: 0000 0000 0000 0000 0000 0000 0000 0000
000000a0: 0000 0000 0000 0000 0000 0000 0000 0000
000000b0: 0000 0000 0000 0000 0000 0000 0000 0000
000000c0: 0000 0000 0000 0000 0000 0000 0000 0000
000000d0: 0000 0000 0000 0000 0000 0000 0000 0000
000000e0: 0000 0000 0000 0000 0000 0000 0000 0000
000000f0: 0000 0000 0000 0000 0000 0000 0000 0000
00000100: e97c 313c e001 b63b 1ee7 873b 5239 c4bc
00000110: 40e3 cdbc a713 af3a 7c94 ce3b bbda 033c
00000120: de97 3ebc 4c5d 0dbd 1697 03bc 0e6f fc3c
00000130: 3c61 033c 1ee3 2d3c aac1 d93a e72c ecbb
00000140: 7750 16bc 213e c6bc de42 61bc 2a58 a63b
00000150: 784c 32bd 0c23 88bc a549 08bd 0548 59bc
00000160: 4962 89bc 2a65 2538 0f59 20bc d5e0 5d3c
00000170: d63b b0bc e99b 233c 1ec9 e73c 3e64 b6ba
00000180: 1e4a 0f3c 4afc 413c ec4f 99bc 2f08 5e3c
00000190: 0530 4f3b 57b3 eebc 0c1e ce3c e5fb 33bb
000001a0: 4676 29bc 6463 833c c3c0 f0bc d501 67bc
000001b0: 30fb ee3b b0d4 36bc 0330 f7b9 3cb9 17ba
000001c0: 7e91 643c 5e17 d03c 5d20 4cbd 8bc0 5b3b
000001d0: cd78 1c3d cbd2 edbb 9e6b 2f3d 20d5 bd3a
000001e0: 9fb2 28bd b21e 83bc edfb 1c3b 29be 933c
000001f0: 9d15 eb3c 015b 34bc c223 debb d429 ae3c
00000200: cb84 edbc 2e82 59bc 647f 5c3d 922f 973b
00000210: bf62 ff3c 1172 6fbc 4aab c73c 7ab0 1c3d
00000220: 9c2c 0cbc f39e 3f3c 9512 92bb b57e 3ebc
00000230: 6148 833c 6114 c5bb fe34 d13c 00cb 0fbc
00000240: 1a00 a33c f6f7 02bd 099e 23bc 3b40 bdba
00000250: 6b4d 413b 8543 37bc 202c 61bb 39a9 9fbc
00000260: 2089 be39 39ed de3b e581 043c cff2 813c
00000270: 1719 993b 3faf e13c dcff 3b3c d278 0cbd
00000280: de73 c4bc 359b 2ebc d563 86bc ea94 d93c
00000290: e09a 05bc 6c6b 65bc a6fb 113d 306f 1ebd
000002a0: b379 dc3a 9382 663c af42 90bb 0f94 80bc
000002b0: 5072 713b b6f8 643c 8023 833c 3956 cabc
000002c0: 02b4 46bc b2b5 c33c 78d8 673d d5e5 b0bb
000002d0: d56c a7bc 6553 1f3b a863 8cbc a10c b8bc
000002e0: af8c 5dbc 92ab ecbc 98d3 313d 49e1 abbc
000002f0: d10c 943c 846c 4abb 9fb9 24bd d6c1 05bc
00000300: 5ab1 ff3c bd4d 53bc e813 40bc d5e3 ee3a
00000310: f358 a4bb f866 6e3d b364 1b3d c9cf b738
00000320: d9f9 813c b00e 00bd 24bd 653b 0355 8a3b
00000330: 0974 0b3c 3485 5bbd 87f3 e53b 9483 863c
00000340: 79aa 9a3c f759 2cbc 83b2 9fbb c8ba 71bc
00000350: 64a7 d1bc bec6 f6bb a176 8bbc 09ef d13a
00000360: 9053 7bbd 7149 e2bc c74e b13b 7743 0fbc
00000370: bd63 0ebb 845f 003d edc0 3a3d 80c0 49bc
00000380: 94f0 2bbc c50b 4abd c42d 143d bf82 b4bc
00000390: cf44 b73b a957 bfbc b927 253c b01c 91bb
000003a0: 357f e53c 2fa1 28bd 446b 25bd 72a6 cc3c
000003b0: c081 7b3c bb6e 84bb 24cd 1c3c f4c9 1abd
000003c0: 6d2d 143c e38a ccbc e4da 0dbc 4aa9 85bc
000003d0: cc29 793c 0444 eebb b436 57bb 7b0b 313b
000003e0: 5355 873c c15f eabb 72b3 163d 0c73 c53c
000003f0: 9a1b 17bc 8ddc c3bc 6b7d b13b 0b5e 3cbd

attention.weight f4 [1, 64]
-0.72970283 -1.5352852 0.2908403 -0.89459014 -0.6259661 1.7091469 -0.9240695 -0.70849437
-2.7382188 -0.24117845 -0.9254781 -1.3469512 -1.5308053 -0.06870594 1.0970246 1.85479
-0.11250491 -1.0473706 -2.7096853 -0.74764985 -2.473992 -1.5371227 -0.14889319 -2.0616908
-1.0813718 1.7543355 -1.1642079 -1.5019009 -0.16126741 -2.009375 2.9788053 3.774546
-0.23932803 1.7116867 1.3416413 -1.1091648 1.17563 -2.3509653 4.6500425 2.8641431
0.12637733 0.05064354 -0.56580514 0.16264974 4.3370714 0.34525606 3.432228 -1.612345
-1.346025 -0.3351018 -3.1865263 2.111954 0.70494187 -1.2388843 0.5338332 1.2103031
-2.1482532 -0.07521099 -0.36076042 -0.25425032 -2.3026748 0.44768867 1.7067012 -1.2314163
00000000: cecd 3abf 3a84 c4bf 05e9 943e dc03 65bf
00000010: 503f 20bf 53c5 da3f d28f 6cbf e35f 35bf
00000020: fa3e 2fc0 7cf7 76be 22ec 6cbf e668 acbf
00000030: 6ef1 c3bf b3b5 8cbd 4d6b 8c3f c269 ed3f
00000040: f968 e6bd 3d10 86bf 7c6b 2dc0 fb65 3fbf
00000050: e355 1ec0 70c0 c4bf 7577 18be bef2 03c0
00000060: 646a 8abf 118e e03f c404 95bf 4a3e c0bf
00000070: 4923 25be 9a99 00c0 bfa4 3e40 2992 7140
00000080: 6812 75be 8d18 db3f e7ba ab3f 1df9 8dbf
00000090: 0b7b 963f 3776 16c0 26cd 9440 1f4e 3740
000000a0: 0f69 013e 9a6f 4f3d 9bd8 10bf a78d 263e
000000b0: 4ac9 8a40 67c5 b03e a0a9 5b40 5261 cebf
000000c0: 8c4a acbf 7792 abbe 0cf0 4bc0 412a 0740
000000d0: 1277 343f c393 9ebf 4ba9 083f 36eb 9a3f
000000e0: fb7c 09c0 3808 9abd 97b5 b8be 192d 82be
000000f0: 065f 13c0 7337 e53e 2f75 da3f 0d9f 9dbf

exp_avg f4 [1, 64]
7.506435e-05 -5.220086e-05 -2.9402709e-05 0.00018435877 2.9055444e-05 -0.00015073197 1.4270774e-05 -0.00013394214
-7.895658e-05 -0.00024414633 5.938073e-05 -0.0001882489 3.1194802e-05 3.1872896e-05 8.665027e-06 6.8815025e-05
0.00017983685 5.849781e-05 -8.0658545e-05 -0.00014125108 0.00013053237 -3.5038487e-05 -6.215329e-05 -9.650388e-05
0.00023402621 4.0459207e-05 -7.587346e-05 0.0001248768 -7.489462e-05 7.2855975e-05 7.931371e-05 4.813507e-05
0.00010414907 0.00010338388 -4.4781835e-05 -2.155406e-05 -9.8477234e-05 5.1824067e-05 6.6559965e-05 0.00013043547
9.162515e-05 6.421796e-05 0.00025227774 0.00018032265 -0.0001937153 -1.6594699e-05 2.8041848e-05 0.00010959392
0.00022729131 -1.0773983e-05 -8.004392e-05 -0.00010370117 -5.3897205e-05 0.0001270551 0.00014359393 -2.5441726e-05
-4.3684246e-05 -3.23005e-05 -0.000100935125 -3.4277225e-05 6.0120317e-05 -6.875244e-05 -5.2767693e-05 -0.00020351227
00000000: de6b 9d38 3ff2 5ab8 d6a5 f6b7 6e50 4139
00000010: 17bc f337 ce0d 1eb9 826c 6f37 d272 0cb9
00000020: 7e95 a5b8 c400 80b9 930f 7938 ae64 45b9
00000030: 2ad7 0238 43af 0538 0260 1137 c950 9038
00000040: 9692 3c39 8c5b 7538 3a27 a9b8 cc1c 14b9
00000050: 84df 0839 4af6 12b8 4b58 82b8 2062 cab8
00000060: ef64 7539 beb2 2938 411e 9fb8 5cf1 0239
00000070: be10 9db8 41ca 9838 3955 a638 a3e4 4938
00000080: 9b6a da38 cccf d838 21d4 3bb8 fece b4b7
00000090: 9085 ceb8 ab5d 5938 1c96 8b38 81c5 0839
000000a0: e126 c038 c1ac 8638 2544 8439 fe14 3d39
000000b0: 0e20 4bb9 d834 8bb7 693b eb37 cad5 e538
000000c0: 0c55 6e39 e8c1 34b7 41dd a7b8 247a d9b8
000000d0: af0f 62b8 183a 0539 b491 1639 b16b d5b7
000000e0: 9a39 37b8 667a 07b8 22ad d3b8 e4c4 0fb8
000000f0: b329 7c38 2f2f 90b8 e152 5db8 e965 55b9

exp_avg_sq f4 [1, 64]
1.119691e-07 1.5007299e-07 2.0106434e-07 3.1350595e-07 5.994772e-08 3.065145e-07 1.7924779e-07 1.4609793e-07
9.038801e-08 2.5992978e-07 3.4060136e-07 1.7118202e-07 7.5966895e-08 2.645693e-07 6.702516e-08 2.704449e-07
3.130732e-07 1.453659e-07 1.2166682e-07 1.0777534e-07 3.274469e-07 1.2027404e-07 3.6745314e-07 2.0489782e-07
4.083758e-07 1.0784168e-07 4.5427333e-07 3.117518e-07 3.045093e-07 2.1574455e-07 4.0936823e-07 4.9892492e-08
1.18150844e-07 1.414839e-07 1.4505243e-07 1.246891e-07 5.1016843e-07 2.5729148e-07 1.1812469e-07 4.0034956e-07
1.9049739e-07 4.0783192e-08 9.521766e-07 2.6879417e-07 3.977912e-07 1.3389669e-07 2.583483e-07 1.8950185e-07
6.4793016e-07 1.6077466e-07 6.080883e-08 4.9559094e-07 2.6845638e-07 1.732775e-07 4.118451e-07 1.0076562e-07
3.424346e-07 4.673979e-07 7.799881e-08 3.710725e-07 1.46536e-07 1.1741031e-07 1.6847824e-07 3.780228e-07
00000000: aa73 f033 c023 2134 25e4 5734 ee4f a834
00000010: 9cbc 8033 088f a434 4277 4034 18df 1c34
00000020: 561b c233 7a8c 8b34 e5db b634 28ce 3734
00000030: 3e23 a333 210a 8e34 79ef 8f33 aa31 9134
00000040: 7414 a834 e015 1c34 85a3 0234 1f72 e733
00000050: f6cb af34 ad24 0134 6046 c534 e201 5c34
00000060: be3e db34 9796 e733 dae2 f334 d75e a734
00000070: 717b a334 69a7 6734 24c7 db34 6049 5633
00000080: 1dba fd33 ccea 1734 b5bf 1b34 47e2 0534
00000090: 82f2 0835 df21 8a34 bcab fd33 a0ef d634
000000a0: 868b 4c34 9829 2f33 1499 7f35 ca4e 9034
000000b0: 0290 d534 3ec5 0f34 1fb3 8a34 df79 4b34
000000c0: 6ced 2d35 67a1 2c34 0296 8233 c008 0535
000000d0: 5d20 9034 280e 3a34 8f1b dd34 7c64 d833
000000e0: dad7 b734 aeee fa34 4d80 a733 d137 c734
000000f0: 8257 1d34 0023 fc33 f2e6 3434 0ff3 ca34
